reward_checkpoints/StackCube.pt (torch, 26866 bytes, 9 tensors)

nets.0.0.weight f4 [32, 57]
000000 bc 81 5c c0 5d d0 71 3e a0 2f 27 3f 09 ae 96 3f
       -3.4454184 0.2361464 0.65307045 1.1771861
000010 f0 a8 95 bf 63 9a ff bf 56 29 83 3f a1 c7 e3 be
       -1.1692181 -1.996899 1.024699 -0.44488242
000020 4c 2d 39 bf 9a 5c 10 3f 36 e5 fa 3f b1 c3 71 40
       -0.7233474 0.563913 1.96012 3.777569
000030 2f 8c 9c bf 8d 91 d5 bf 30 b5 52 bc 7c 45 aa 3e
       -1.2230281 -1.6685044 -0.012860581 0.33256137
000040 80 ab df be 28 48 8b bf c8 2a fa 3d 4b 3c 6c bd
       -0.43685532 -1.0881395 0.12215191 -0.057674687
000050 3d 0e 45 3d 1e d9 d0 bd 0e 4e df bc 7e fd ca 3d
       0.04810928 -0.10197662 -0.027258899 0.09911631
000060 a3 e4 ae bc e9 21 ce 3f 61 86 1f c0 75 a4 b7 3f
       -0.021349257 1.6104099 -2.4925768 1.4347063
000070 f4 84 4b 3e 15 80 07 40 ab fd 05 c1 bc e3 e3 bf
       0.19874936 2.1171925 -8.374431 -1.7803874
000080 55 4c c9 3f 42 53 c5 3e f0 d6 8d 40 39 79 09 3d
       1.572642 0.38540083 4.4324875 0.033562873
000090 2e cd f6 3e 6a 75 1d 40 7f 85 3c 3e 25 82 01 3f
       0.48203415 2.4602914 0.184103 0.5058921
0000a0 c3 4a aa be 50 71 75 3f d6 c2 98 bd cc f1 c7 3e
       -0.33260164 0.95876026 -0.07459037 0.39051664
0000b0 18 35 b9 3f a2 28 39 3f b0 2b 8f 3f fa f4 9d 40
       1.4469328 0.72327626 1.1185207 4.9361544
0000c0 af c9 fa be d0 46 7b be 1c 84 dc 3f b5 bf bb bf
       -0.48981997 -0.24538732 1.7227817 -1.4667879
0000d0 18 b1 96 bf 58 20 3d bf 6e 65 d0 3f 24 f7 75 40
       -1.1772795 -0.7387748 1.6280954 3.8432093
0000e0 40 00 20 40 96 9f cb 3f 6b 63 e6 3e 8c 65 d3 40
       2.5000153 1.5908077 0.44997725 6.606146
0000f0 f7 44 8b 3d f7 2b 14 c0 e8 13 85 3d b8 58 93 3f
       0.068002634 -2.3151834 0.064979374 1.151145
000100 f7 95 13 3f 2a 06 12 3e c1 7b 3b be 54 f9 58 be
       0.57650703 0.14260164 -0.18308927 -0.21188861
000110 42 f3 72 bf 3b cc 7a 3e 59 10 77 3d 8f 18 a5 3e
       -0.9490243 0.2449197 0.060318325 0.322453
000120 d3 b2 c7 be 90 aa 73 be fc 62 f3 be a3 a4 a0 3e
       -0.3900362 -0.23795533 -0.47536457 0.31375608
000130 ee f5 d7 3c fc e2 eb bd 59 21 3d be 50 b4 a9 bd
       0.026362386 -0.11517903 -0.18469752 -0.08286345
000140 4a ce fc bd 27 04 f1 3d ea b3 7d 40 dd 14 21 40
       -0.12344034 0.1176837 3.964106 2.5168984
000150 ff a2 db be 26 6c 97 c0 af d0 da bb 27 5e 9a c1
       -0.42897794 -4.7319517 -0.006677709 -19.295973
000160 dd 9c a4 c0 d4 ac 2c bf 57 4b af 3f f5 d1 88 40
       -5.1441483 -0.67451215 1.3694867 4.2756295
000170 8c 47 a5 bf dc 23 86 c0 05 a2 af 40 a0 cd ea 3f
       -1.2912459 -4.1918774 5.488528 1.8344002
000180 62 45 30 3f 48 f3 0c 40 6f ee cf 3f ae 5a b5 bf
       0.6885587 2.2023487 1.6244639 -1.4168298
000190 fc 0a 22 c0 70 8e eb 40 04 74 b8 3f 9f 9c 80 c0
       -2.5319204 7.3611374 1.4410405 -4.019119
0001a0 d5 bf c6 bf 27 5b f8 3f 89 97 08 c0 8e b1 86 be
       -1.5527292 1.9402817 -2.134249 -0.26307338
0001b0 2b 72 5d 3f d9 b3 61 3f ca 54 d7 3e 4e da 0b 41
       0.8650233 0.8816505 0.42056876 8.740797
0001c0 48 e5 4d 40 1f cf d8 3f 6a 7f 00 40 7a 50 a1 3f
       3.2171192 1.6938208 2.0077767 1.2602684
0001d0 c3 39 19 40 3d fe 47 3f 67 18 e0 be 3e 84 96 bd
       2.3941505 0.7812231 -0.43768618 -0.07349442
0001e0 5c 7d a9 bd 2f 5e 11 c1 4e 19 ec c0 58 a4 90 bc
       -0.082758635 -9.085494 -7.378089 -0.01765649
0001f0 cb ae f5 3c e9 d7 99 3e 76 bd 18 3e 3a ba 9f 3e
       0.029990574 0.3004754 0.14916024 0.31196767
000200 a5 a3 9a 3e 79 9a 84 3e b4 14 96 bc 51 da 4c 3e
       0.30202976 0.25899103 -0.018320419 0.20005156
000210 61 cc 95 3e bb 59 df bb 4a 2f c2 3d 04 db c8 be
       0.2925749 -0.0068161166 0.09481676 -0.39229596
000220 c4 3f 71 3b 9d 36 3b bc 66 98 db 3c 86 9c fd 3f
       0.003681169 -0.011426595 0.026806068 1.9813392
000230 b0 6d 23 40 c0 2c 06 c1 d0 55 d3 bf 26 a5 a0 3e
       2.5535698 -8.385925 -1.6510563 0.31375998
000240 78 6b ac 3e ba 51 cd bf 67 c6 f3 c0 bc 57 4c c0
       0.33675742 -1.6040566 -7.617969 -3.192855
000250 9c 6a c0 c0 8c 62 99 bd 94 4c 1e be 3f 49 33 be
       -6.013014 -0.074894994 -0.154589 -0.1750841
000260 b8 74 a5 bd fc 8a 56 c0 37 b3 f0 be 63 b9 51 c0
       -0.08078903 -3.352233 -0.4701173 -3.27694
000270 db 8b 20 bd f5 56 ba bd b8 34 b2 bf 47 92 d2 be
       -0.039195877 -0.09098617 -1.3922338 -0.41127226
000280 20 8e 61 c1 c5 a6 03 c1 b1 6e 08 41 c3 aa 93 c0
       -14.0971985 -8.228215 8.527024 -4.614595
000290 b9 cd 01 c0 4e 92 16 41 3f a3 9d 40 c1 ae 2b 40
       -2.0281813 9.410719 4.9261775 2.6825411
0002a0 2d cd 7c c0 19 ba 52 c0 0a 17 e7 bf 81 4f 08 3f
       -3.950023 -3.2926085 -1.8053906 0.53246313
0002b0 6c 4e 0f 3e 54 b9 b8 3f 5b d0 1e 3e cd 6c cb 3c
       0.1399476 1.4431558 0.15509169 0.024832154
0002c0 d1 27 35 bf 05 26 ac be d0 f5 7f 3e d9 c8 2d c0
       -0.7076388 -0.33622757 0.24996114 -2.7153838
0002d0 ca a6 05 be c1 41 39 be 3f 08 d8 bc 4c 9e 0c be
       -0.13051906 -0.1809149 -0.02637112 -0.1373226
0002e0 4d a0 e4 3e 61 30 6c bb ed 15 05 3e 30 5d 6f be
       0.4465355 -0.0036039578 0.12996645 -0.23375392
0002f0 5b d5 4b be 55 35 d3 3e d2 60 d7 3d 10 9b b9 3d
       -0.19905607 0.41251627 0.10516514 0.09062779
000300 c0 4e de be dc 92 c1 3b 31 39 bf bd a0 53 95 bd
       -0.43419456 0.0059073996 -0.0933708 -0.07291341
000310 e9 fe 04 3f e5 05 d8 3f 95 3a 75 3e 90 4f 76 40
       0.5195146 1.6876799 0.23948129 3.848606
000320 c6 f3 22 3f 45 a3 21 bf b1 49 4d 3f 41 d4 d6 bf
       0.6365322 -0.63139755 0.8019057 -1.6783525
000330 c4 db e7 3f b8 ba de 40 b4 e7 53 bf 1b 05 df c0
       1.8113942 6.960293 -0.82775426 -6.969373
000340 b2 52 03 40 97 9b 9a 3e 7b b3 86 c0 08 af 3a bf
       2.0519223 0.3019683 -4.209409 -0.72923326
000350 88 ce b3 3f 6f 97 33 c0 f0 87 cc 3f df 86 47 c0
       1.4047403 -2.8061178 1.5978985 -3.1176069
000360 5a 2e 2c bf 53 55 84 c0 6d 0d 5d bd b8 4c c6 3f
       -0.67258227 -4.1354156 -0.053967882 1.5492163
000370 35 61 99 c0 ce 2d ea bf b0 2d 54 bc f3 1b 16 c0
       -4.793116 -1.8295228 -0.012950346 -2.345456
000380 a1 25 01 c0 4a 41 19 c1 55 4f 43 40 d0 cf c7 3f
       -2.0179217 -9.57844 3.051717 1.5610294
000390 da 16 00 c0 24 92 7b 3f 45 bd da 3f ef a5 fd 3e
       -2.0013947 0.9826987 1.708901 0.4954066
0003a0 34 d7 4b 40 a1 00 cb 3e 77 97 27 3d 12 1c ab be
       3.18501 0.39648917 0.040915933 -0.33419853
0003b0 1d 47 6f 3f 5a 4b 8b 3d 12 3f ad be 47 a2 91 be
       0.93467885 0.068014815 -0.3383718 -0.2844412
0003c0 07 7b f3 3c a6 4d a5 be 06 9f 6c 3d 9e cd d9 bd
       0.02972175 -0.32285804 0.057768844 -0.106349215
0003d0 61 49 b9 be 0d b1 07 bf dd 37 86 be c2 51 e0 bd
       -0.36188796 -0.53004533 -0.26214495 -0.10953094
0003e0 da 46 ef 3a e9 ba ab 3e 16 de 8e bd c0 69 8f 3c
       0.0018255368 0.3354104 -0.06975953 0.01750648
0003f0 3f 50 e0 3d ad 0e 58 bf 17 1c 04 c0 2d 51 4d bf
       0.10952806 -0.84397393 -2.0642145 -0.8020199

nets.0.0.bias f4 [32]
000000 87 be af be 41 e1 6c be 67 eb a7 be 80 26 68 be
       -0.34325048 -0.23132803 -0.32796785 -0.22670937
000010 81 0b 74 3e 27 8d 23 be ab fe 34 be 05 d7 37 be
       0.23832513 -0.15971814 -0.17675273 -0.17953117
000020 5e 7f b7 3e 64 64 6a 3e 68 f0 17 3f 16 68 05 bf
       0.3583936 0.22889858 0.59351206 -0.5211195
000030 ed 08 43 3e 99 17 b8 3d b5 66 08 bf 0c e0 fb 3e
       0.19046374 0.08988876 -0.5328172 0.49194372
000040 4d 81 93 3e 43 e5 8d 3e 57 76 c8 be 17 a5 50 3d
       0.28809586 0.27713975 -0.39152786 0.050938692
000050 f9 9e 0e be e7 a7 ab be 45 a9 d5 3e e2 02 b1 3e
       -0.13927831 -0.33526537 0.41730705 0.34572512
000060 f7 70 74 3e 11 46 ea be 3d d8 99 3e 1c 4e 04 3e
       0.23871218 -0.4575658 0.3004779 0.12920421
000070 8b 49 14 3d b7 e7 c9 be 8d 4d 31 be be a3 c4 3d
       0.03620295 -0.39434597 -0.1731474 0.09601544

nets.0.2.weight f4 [1, 32]
000000 2d 90 90 40 4d a2 64 40 fa 61 24 c1 25 13 4b 40
       4.5175996 3.572406 -10.27392 3.1730435
000010 f8 b4 93 c0 88 72 44 40 4a 38 76 40 93 d2 35 40
       -4.615841 3.0694904 3.8471856 2.8409774
000020 0e 6a 83 c0 31 43 87 c0 56 19 88 40 cb 30 83 40
       -4.106696 -4.226952 4.253093 4.099706
000030 93 89 67 40 87 88 0e 41 50 61 21 40 c4 f0 9e c0
       3.6177719 8.908332 2.5215645 -4.9668903
000040 55 ab 8a c0 9d 61 1e 40 ba 44 c0 40 46 32 96 c0
       -4.3334146 2.4747078 6.0083895 -4.693637
000050 e4 14 07 40 27 4d d0 c0 90 5f 91 c0 cb 69 20 c1
       2.11065 -6.509418 -4.5429153 -10.025828
000060 91 cd 56 40 dd ad 73 c0 ba ad 9d bf 0b 55 b4 c0
       3.3562968 -3.8074868 -1.2318642 -5.635381
000070 f3 7d 21 40 65 c2 34 c1 cf 34 a1 40 0c e3 91 c0
       2.5233123 -11.29746 5.0376964 -4.5589657

nets.1.0.weight f4 [32, 57]
000000 c7 ab 27 c1 b4 8a 71 bf 11 93 a4 40 95 c8 fd 3d
       -10.479438 -0.9435227 5.1429524 0.123917736
000010 6c 46 30 c1 3b d9 f0 bd 69 33 d9 bf 00 c9 30 c0
       -11.017193 -0.117601834 -1.6968814 -2.762268
000020 e2 92 d9 c0 05 27 31 3e f4 84 16 bf 1b 88 8f bf
       -6.79918 0.17300041 -0.5879662 -1.1213411
000030 6e 47 e8 bc 65 a5 69 c0 8c 0f 56 bf 86 cc 59 bf
       -0.028354373 -3.65072 -0.8361747 -0.85077703
000040 a7 f3 c1 bd d9 91 90 bf e0 9e e4 3e b2 25 00 be
       -0.09470301 -1.1294509 0.44652462 -0.1251438
000050 6a e5 b7 3d e0 ef f3 be 3c 7f ea bd f9 9d d6 3d
       0.08979304 -0.47643948 -0.11450049 0.1047935
000060 d2 f5 91 bd 7f 1e 8f 40 3f cd e8 c0 54 e8 a6 3f
       -0.07126965 4.4724727 -7.2750545 1.3039651
000070 d9 38 92 40 bf 34 c0 3f 62 07 11 41 e8 65 d3 40
       4.5694394 1.5016097 9.064302 6.6061897
000080 4f 49 96 be 9e 93 37 c0 17 97 9e bf af ee 9f 3d
       -0.29352805 -2.8683848 -1.2389859 0.07809197
000090 0c e2 ab 40 e7 f2 f4 3f 88 8b d0 3e b3 de 86 3f
       5.3713436 1.9136628 0.40731454 1.0536712
0000a0 90 e3 a6 c0 24 1e 6a c0 53 5c c6 bd ea 68 ed be
       -5.2152786 -3.6580896 -0.09685578 -0.46369106
0000b0 48 d9 73 40 b4 e0 9c bf e2 94 2a be 95 be 6c 3f
       3.8101368 -1.2256074 -0.16658357 0.92478305
0000c0 b3 af 6c bf 6c 84 9a 3e 94 40 11 c0 b9 f0 20 c0
       -0.92455596 0.30179155 -2.2695665 -2.5146925
0000d0 ff 8a d4 3f da a1 29 c0 17 a2 7d 40 c3 6e 86 3e
       1.6604918 -2.6505036 3.9630182 0.2625638
0000e0 1c 89 5a 3f 6e 6f 4b 40 33 ae 14 3f cf 40 45 40
       0.8536546 3.1786761 0.58078307 3.0820806
0000f0 b5 a1 54 bf 85 ea 3f 3d 46 18 37 3f 33 8c ea bd
       -0.83059245 0.046854515 0.71521413 -0.11452522
000100 2a 1d ea c0 5f 62 63 40 92 92 3b bf 87 5e 0c 3f
       -7.31606 3.552879 -0.73270524 0.5483174
000110 cc 36 83 bd 2a 26 f1 bd 72 6a 90 3e 7c 17 cf be
       -0.06406936 -0.11774857 0.2820621 -0.40447605
000120 29 be 71 3f 14 a2 06 3f cf df 0b 3e 12 ae 93 3e
       0.94430786 0.5259106 0.13659595 0.28843743
000130 e3 fc 79 bd 8a b4 be bd 6a 7e cb be d6 71 d4 bd
       -0.061032187 -0.09311779 -0.39744884 -0.10373275
000140 dc 93 9c bd 3e 1c f7 bd f6 63 ba bf 49 18 42 40
       -0.076453894 -0.12065934 -1.4561756 3.0327322
000150 45 45 9f c0 b6 15 76 c0 29 f3 40 bf a0 9e 8c be
       -4.9772058 -3.8450751 -0.7537103 -0.2746477
000160 55 be d6 40 f9 e7 6d 3f d9 92 f6 c0 26 66 1f c0
       6.710734 0.9293209 -7.7054257 -2.4906096
000170 35 f0 8f bd 70 5d 49 40 cf 2e 23 40 a0 39 94 3d
       -0.07028238 3.146328 2.549732 0.072375536
000180 19 73 ec 3e 68 b2 19 c0 21 44 97 40 4f df de 3d
       0.46181563 -2.401514 4.7270665 0.108824365
000190 64 9c 3f 3f 7a 8c b9 be 30 9e a2 3e 73 2b 82 40
       0.7484801 -0.36239988 0.31761312 4.067804
0001a0 ab 5c 82 c1 72 84 00 40 73 99 12 40 c1 44 8a c0
       -16.295248 2.0080838 2.2906158 -4.320893
0001b0 f9 f0 e6 40 4d 91 8e bf 07 fb 58 40 19 b5 77 3f
       7.2169156 -1.1138092 3.3903215 0.9676071
0001c0 0b 3b 50 c0 75 84 bb 40 bd 1d 8f be 8b 7f 4b bf
       -3.2536037 5.859919 -0.27952376 -0.7949149
0001d0 6f ce 9b 40 ea fd 00 3b fe be 7d 40 0f 82 d9 3e
       4.8689494 0.0019682595 3.9647822 0.4248204
0001e0 b3 63 6f bf c0 60 b5 bf c5 b2 93 c0 19 bd 15 c0
       -0.93511504 -1.4170151 -4.6155725 -2.3396666
0001f0 0a 6e 41 40 25 99 8c c0 11 a4 a7 3e 26 f8 de 3f
       3.0223413 -4.3936944 0.3274236 1.7419479
000200 73 76 6c 40 7f 71 70 c0 3a f2 3e 40 f7 a7 a9 be
       3.6947296 -3.7569273 2.9835343 -0.3313596
000210 b5 ea d3 3e 3d a1 60 3b da 01 76 bd 9f 8b ee be
       0.41390005 0.0034275793 -0.06006036 -0.46590897
000220 ef 75 92 3b fa c2 e1 3d a9 3e 6b bd ab c5 1b 40
       0.004469625 0.11023517 -0.057432804 2.4339397
000230 6b d4 d2 3f 49 e2 99 be 3d 2b 33 c0 35 ed 34 3f
       1.6471075 -0.30055454 -2.799514 0.7067445
000240 8d 38 06 40 84 0c 5e 41 1b 10 8f 3f 2c 8f f6 bd
       2.0972016 13.878056 1.117679 -0.120390266
000250 d4 ab 32 c1 2c f0 a9 b9 ee 73 ed 3f e2 34 95 c0
       -11.16695 -0.00032413134 1.8551004 -4.6627054
000260 7b ab cd bd b9 f2 6c 3f dd 21 2d bf 27 bb b7 bf
       -0.10042473 0.92557865 -0.67629796 -1.4353989
000270 ff 07 7c 3d e5 be 02 c0 83 40 eb 40 d3 1e cb 3e
       0.061531063 -2.0429013 7.351625 0.39671955
000280 b1 fa 1b c0 17 82 38 c0 a5 ba 12 c0 2e 7c c9 bf
       -2.437176 -2.88294 -2.2926419 -1.5741022
000290 27 93 14 c0 78 3c 34 bc 14 20 d4 be 5f e3 0a bf
       -2.3214815 -0.011000745 -0.41430724 -0.5425319
0002a0 bf 17 16 42 98 b1 c5 c1 56 9d 49 3f 9a 68 9b 3f
       37.52319 -24.711716 0.787557 1.2141297
0002b0 73 82 ef 3f ca 66 e4 3f 02 11 02 bf 13 08 a5 40
       1.8711685 1.7843869 -0.508072 5.1572356
0002c0 4c 68 38 3e d6 98 7b be 87 56 aa c0 e8 8f 53 40
       0.18008536 -0.24570021 -5.3230624 3.3056583
0002d0 f2 0a ab 3e 36 c3 81 3f 49 a3 8b 3e e4 5c 5a bf
       0.33406788 1.0137699 0.27273014 -0.8529799
0002e0 02 d0 38 bf 19 9a 42 bf e3 b0 20 be 34 88 f9 3e
       -0.72192395 -0.76016384 -0.15692477 0.48736727
0002f0 c5 b5 96 3f c7 c6 bb 3e b9 84 7b bd 37 58 53 bd
       1.1774222 0.36675093 -0.06140587 -0.0515978
000300 b6 aa da be 0f 35 e2 bd 04 79 d8 3d 62 06 89 bc
       -0.42708367 -0.110452764 0.10569957 -0.016726676
000310 60 a9 44 c1 98 0f 51 3f ff 60 be c0 0c 8b d8 c0
       -12.291351 0.8166442 -5.9493403 -6.7669735
000320 9b 0b 30 be 62 e9 f1 3f 0f d1 37 bf 8f c3 11 41
       -0.17191927 1.8899348 -0.71803373 9.110244
000330 2b d1 dd bf cb d7 35 c0 c2 6c af bb 8c e7 0d 40
       -1.7329458 -2.841296 -0.005353541 2.2172575
000340 f3 e4 90 c0 18 2f a9 3d 05 17 b2 bd b1 c4 be be
       -4.527948 0.082609355 -0.08695797 -0.3725944
000350 38 53 c6 40 c0 0c 98 3d 5f 74 8c 3e 14 64 d4 bd
       6.1976585 0.07424307 0.27432534 -0.10370651
000360 8c 11 a1 3e ae 42 bc 41 cd 54 a8 c0 c7 61 11 40
       0.314587 23.532558 -5.2603517 2.2715929
000370 8d cc ed 40 f7 fc 3a bf 63 bd 06 41 ad 81 2d c1
       7.4312196 -0.73042244 8.421237 -10.844159
000380 ec a7 bc 3f bc ae 8e 3f 7a c8 51 3f b0 fa 83 c0
       1.4738746 1.1147075 0.8194653 -4.1243515
000390 63 c2 2d 40 12 b1 9e 3c f2 4b 7c c0 ce 57 4b 3d
       2.7149894 0.019371543 -3.9421353 0.049644284
0003a0 cf 02 6d 40 9b 31 1d 3f 3a 41 2d 3f 64 7d d4 3d
       3.7032964 0.61403817 0.6767765 0.10375479
0003b0 50 f0 98 c0 c7 db 43 3f 93 5a 88 3f d1 b8 9e 3f
       -4.779335 0.7650723 1.0652641 1.2400151
0003c0 f0 b9 2f bf 7f ed 1c 3e 0b d8 e9 be fd 61 d8 be
       -0.68643093 0.15324973 -0.4567264 -0.4226226
0003d0 4c da ce bf 58 a3 ae 3e 72 24 2b bf 5a 8c db 3d
       -1.6160369 0.34108996 -0.66852486 0.10720129
0003e0 80 0d e8 bd 95 17 56 3f ff 24 7d 3d 5d 03 b3 bd
       -0.113307 0.83629733 0.06180286 -0.08740876
0003f0 f3 d2 01 3e d6 32 01 c0 67 b5 49 40 d5 80 2b 40
       0.12678127 -2.0187278 3.151697 2.6797383

nets.1.0.bias f4 [32]
000000 bf 62 17 bf 5d 48 9e be 31 d0 e5 be 9d df c5 be
       -0.5913505 -0.30914584 -0.448854 -0.38647166
000010 8a 64 53 3f 61 ca a2 3f 8c 16 fb bc 92 f9 af be
       0.82575285 1.2718011 -0.0306504 -0.34370095
000020 69 58 09 3f 44 a6 c9 be 7b b5 73 be be 22 28 be
       0.5365053 -0.39384663 -0.23799698 -0.16419503
000030 52 8f 7f be 0f d8 27 be 71 fa 40 3f 51 a9 4d 3c
       -0.24957016 -0.16391014 0.75382143 0.012552575
000040 5e d3 f0 3e 29 f0 4a bd 06 96 95 3e 61 b6 97 3f
       0.4703626 -0.04954544 0.2921602 1.1852533
000050 5b bf 7a bd 75 db 62 bd 3c 42 a0 3d 21 b8 a4 be
       -0.061217647 -0.05538507 0.07825133 -0.3217173
000060 c3 0f 21 be f8 17 44 bc 8b cf 2b be a7 9e 2e 3e
       -0.15728669 -0.011968605 -0.1677839 0.17052709
000070 5d e0 62 bf b6 2f fb 3e 7d 37 73 3f 5f 32 a5 be
       -0.886236 0.49059838 0.95006543 -0.32264993

nets.1.2.weight f4 [1, 32]
000000 a4 ed 3a c0 df cd be 40 cf c9 6e c0 b1 46 b4 40
       -2.9207544 5.9626307 -3.7310674 5.6336293
000010 2f 01 ae c0 a4 d2 bb 40 10 a0 e1 40 02 30 22 c0
       -5.4376445 5.869463 7.050789 -2.5341802
000020 ae 02 90 40 4a 87 c2 c0 17 2a bc 40 2c 16 d6 40
       4.500327 -6.079015 5.880138 6.6902065
000030 00 ec af 40 7b 3d 56 40 40 24 a0 c0 97 b1 fc c0
       5.4975586 3.3475025 -5.004425 -7.8966784
000040 ee ab a2 40 5b 02 a2 40 53 f3 18 40 a6 9e 87 40
       5.0834875 5.0627875 2.3898513 4.2381163
000050 18 bf e3 c0 08 43 9a c0 14 33 a0 c0 39 ce 99 3f
       -7.117077 -4.8206825 -5.006235 1.2016059
000060 06 d2 2f c1 c4 35 fa c0 8d 7b 42 c0 18 d7 23 c1
       -10.988775 -7.819063 -3.038791 -10.240013
000070 d8 6e bb c0 7b b5 b4 40 a8 b0 db c0 72 f0 e3 c0
       -5.8572807 5.6471534 -6.8653145 -7.123101

nets.2.0.weight f4 [32, 57]
000000 c3 d8 2d bd 6c 5b 56 3f e1 2f f3 c0 69 1a 26 3f
       -0.04244305 0.8373325 -7.5995946 0.6488405
000010 ff 4f 93 3f 67 a3 78 be 37 1f f0 3d 09 2d 00 c0
       1.1508788 -0.24281083 0.11724704 -2.0027487
000020 97 08 af bf e9 e3 17 3f f6 9e 50 3f 54 57 e0 3e
       -1.3674496 0.5933214 0.81492555 0.43816626
000030 03 ce 1d bf f2 6c 25 be 9a 2e 0c be fe bc 40 be
       -0.61642474 -0.1615484 -0.13689652 -0.18822095
000040 b2 1b 48 c0 1a 1f 60 40 bb cc db 3e 26 1c c2 3d
       -3.1266904 3.5018983 0.42929634 0.09478025
000050 25 5c fd bd f0 fa 6f be 53 67 08 bd ec 0c 5d 3d
       -0.12371091 -0.23435569 -0.033301663 0.0539674
000060 ae 7a a8 bd 27 61 77 c0 0a 9e be 3d b5 d0 4c 3f
       -0.08226524 -3.8653047 0.09307487 0.8000596
000070 a2 d5 00 c1 4f cd 79 3f fc 14 aa bf 34 58 88 40
       -8.052156 0.975789 -1.3287654 4.260767
000080 ea 06 05 40 f7 d5 8b 40 b7 2b 84 41 d3 93 97 3d
       2.078547 4.3698688 16.521345 0.07401242
000090 b5 14 1d 40 c7 1f c5 c0 2d 82 1d be 53 ab 1c bf
       2.4543889 -6.160129 -0.1538169 -0.6119892
0000a0 21 27 c1 3f f9 eb 3e 3e 18 37 21 bd 4c f3 0e 3e
       1.5090066 0.18644704 -0.039359182 0.13959998
0000b0 5f d1 f7 40 c9 c5 2f 3e 4d 09 f1 40 c6 68 e0 40
       7.744308 0.17165293 7.5323853 7.0127897
0000c0 b2 02 31 40 5b 57 af 3f 2f ab b8 3f f6 99 2f bf
       2.7657895 1.3698534 1.4427241 -0.685943
0000d0 79 25 50 c0 2b 55 0c c0 88 e9 c2 c2 6c d4 1e 41
       -3.2522871 -2.1926982 -97.456116 9.926861
0000e0 cf fc 8d 3f ba a6 f6 be 2f 7b 02 40 07 69 c7 c0
       1.1092776 -0.48174077 2.0387685 -6.2315707
0000f0 b7 9b 9f 3e b3 e8 b1 3e a1 25 98 be a9 1d 35 bf
       0.31173488 0.34747848 -0.2971621 -0.7074838
000100 6d 4e 38 40 9a 76 7d 40 84 85 a7 3e 72 b7 8f 3f
       2.8797867 3.9603639 0.32719052 1.1227858
000110 d0 55 6d 3f 1b 79 15 bf 91 9c 4e 3e 1b d1 04 be
       0.92709064 -0.5838792 0.20176913 -0.12970392
000120 62 fe b5 be d9 a5 7a 3f 4e 4f 72 3f 1a 44 18 39
       -0.3554564 0.97909313 0.9465226 0.0001452122
000130 98 25 9c 3d 39 dd 8a 3c 21 27 1e 3e c1 27 23 bd
       0.07624358 0.01695119 0.15444614 -0.039832834
000140 55 6b b9 3d 4e 4c 18 3d 15 c8 ec bf fb 03 3d c0
       0.09053675 0.037182145 -1.849856 -2.953368
000150 a1 5a af bf cd 4c 8c c0 5b ac 22 be df a7 ca bf
       -1.3699533 -4.384375 -0.15886061 -1.583248
000160 d2 f3 9c 3f df 60 a1 c0 83 12 8f 40 23 4c 2b c1
       1.2261908 -5.043075 4.4710097 -10.706088
000170 ca 97 8f 3d 2c ea 49 3f 13 46 c9 40 67 67 7b 3e
       0.07011373 0.7887294 6.289804 0.24551164
000180 b1 6e 0d c0 5e 21 b5 3e e1 80 85 3e a3 13 37 3b
       -2.209881 0.3537702 0.2607489 0.0027935288
000190 8d e4 00 c1 39 62 7c 3f 5d 2d a2 bc 3a 3a 10 c0
       -8.055799 0.98587376 -0.019797022 -2.2535539
0001a0 48 75 15 41 32 e6 44 c0 1c 4b 89 be 8f 2e de 3f
       9.341133 -3.07655 -0.26815116 1.7357959
0001b0 25 56 ce 3f bf 2a 1c 40 01 43 25 c0 f3 36 e6 41
       1.6120039 2.440109 -2.5822146 28.77683
0001c0 83 57 16 c0 71 ea a0 3e 47 65 fd 3f 50 25 1b 3f
       -2.3490913 0.31428865 1.9796532 0.6060381
0001d0 f4 c8 db 3f 59 2d b1 3d a7 a7 ac 3f 35 74 49 3f
       1.7170701 0.086512275 1.3488663 0.7869294
0001e0 0f d9 d9 be 73 74 39 c1 96 10 14 c1 58 ca c4 bf
       -0.42548415 -11.59093 -9.254049 -1.537425
0001f0 3d a6 cf 3e a9 c6 ea bf ad ed 11 be e5 3e 80 3f
       0.40556517 -1.8341876 -0.14250822 1.0019194
000200 0b 80 a3 bd d1 bd 85 3f ee 01 38 be c2 45 f2 be
       -0.07983407 1.0448552 -0.17969486 -0.47318846
000210 7a 6c 9a 3d 4e 81 10 3d 67 a3 8e 3d b2 35 0e be
       0.075402215 0.035279565 0.0696476 -0.1388767
000220 c5 f9 28 3c a8 6a f5 3d e7 7e 99 bd 1e bf 0e c0
       0.010313456 0.11983234 -0.07494908 -2.2304149
000230 25 b7 37 bf 5b eb 3c c0 2f 66 a0 40 ee b0 49 c0
       -0.7176383 -2.951865 5.0124736 -3.151424
000240 ab 3f b9 bf 32 62 b9 3f 15 f9 1a 40 16 b8 c8 bf
       -1.4472555 1.4483092 2.4214528 -1.5681179
000250 07 1a 0a 41 f4 82 83 3d cd ff 50 be 5e 28 38 3e
       8.631354 0.06421462 -0.2041008 0.17984149
000260 38 b7 b2 3d 24 97 36 3f dd 4d 43 bf b4 c5 2a c0
       0.087263525 0.7132437 -0.76290685 -2.6683168
000270 5a fd 71 bc d2 fe 64 bf f7 bf ab bf 2c b6 8d bd
       -0.014769876 -0.89451325 -1.3417958 -0.06919512
000280 ee 79 df bf c9 a7 45 c1 ae 14 4e 41 17 ac d6 3f
       -1.7459085 -12.353463 12.880049 1.6771268
000290 bb be d4 be 63 d4 0e 40 dd f9 c0 bf ed 65 43 3f
       -0.41551766 2.231713 -1.5076252 0.763274
0002a0 93 11 9d c0 a7 16 cc 3f 6f 3d 65 3f ee 37 3c 40
       -4.9083953 1.5944413 0.89546865 2.9409137
0002b0 c6 49 10 bf a2 99 67 40 9b 9c c6 bd e7 3e 7b bf
       -0.5636257 3.618752 -0.09697839 -0.98142856
0002c0 84 38 02 bd 90 f3 29 3e be cf cc c1 a3 20 96 c1
       -0.03179218 0.16596818 -25.601437 -18.765936
0002d0 b7 4b e3 bf ba 45 98 bd dd 71 0c c0 1e 5d c7 3c
       -1.7757481 -0.07435174 -2.1944497 0.024336394
0002e0 48 cf d6 3f 07 80 00 3e be f6 92 3f 56 50 fa 3e
       1.6782007 0.12548839 1.148155 0.48889416
0002f0 0c ac b0 be f4 33 92 be 8b 45 08 bd a9 6f 8a 3d
       -0.3450626 -0.28555262 -0.033269446 0.06759579
000300 fa fe 55 3e a4 fe a5 bc 46 85 bd bd b2 be a8 bd
       0.20898047 -0.020263024 -0.092539355 -0.08239497
000310 e4 28 ee 3f b0 bb d9 bf 33 46 e6 bf bc a0 a7 bf
       1.8606229 -1.7010403 -1.7990173 -1.3095927
000320 c1 e9 99 be 95 0c 20 be 04 65 65 bf eb 6f 1a bf
       -0.30061153 -0.156298 -0.8960726 -0.60327023
000330 5c d2 1e c0 46 12 90 bf 19 b8 3e bd fe f5 0a 3f
       -2.4815893 -1.1255577 -0.046562288 0.54281604
000340 e8 02 82 3d 79 31 12 bd b7 34 9d 3f 39 a5 0b c0
       0.063482106 -0.035691712 1.2281712 -2.1819594
000350 68 61 80 40 c6 f0 84 bb aa 40 9b 3f 56 ae cb 3e
       4.0118904 -0.0040570227 1.2129109 0.39781445
000360 8d c3 0e be 18 6a a6 c0 ea 8f a9 c0 a8 78 99 40
       -0.13941784 -5.200451 -5.2988176 4.7959785
000370 9c cd 84 bf d4 a0 90 bf d1 b2 6d 40 91 97 83 3f
       -1.0375247 -1.1299081 3.714039 1.0280629
000380 9b 0c ef 3f e6 3a 2d 40 f4 46 b8 bd e9 df 9e bd
       1.8675722 2.7067199 -0.08997908 -0.07757551
000390 f6 fb 5a c1 d1 f5 a9 40 f5 4b 94 41 b8 5c 93 3f
       -13.686514 5.311257 18.537088 1.151267
0003a0 7e 14 ee c1 7a 3e 90 bf 4a 3e c4 3f f5 98 bf 40
       -29.760006 -1.1269066 1.5331509 5.9874215
0003b0 33 4e f7 40 f6 4e 9e bc f0 62 15 40 5d 31 51 c1
       7.728296 -0.01932476 2.3341637 -13.074552
0003c0 3c b0 7e bd 99 01 ac c1 9c 66 86 40 12 cf 86 c1
       -0.06217979 -21.50078 4.2000256 -16.851109
0003d0 f9 9f e5 c0 75 9b 2e 40 41 d5 6e bf 76 45 25 3d
       -7.175778 2.7282383 -0.9329415 0.040349446
0003e0 17 b4 fa bd 08 2c 83 3f 12 71 30 bc 52 ab ba bd
       -0.12241381 1.0247812 -0.010769146 -0.09114708
0003f0 61 79 92 3b db 75 10 41 fd ea a5 bb d2 ed f3 bf
       0.004470036 9.028773 -0.005063413 -1.9056952

nets.2.0.bias f4 [32]
000000 2a 40 d8 be 3f 96 53 3d e7 79 0e be 29 36 5f 3e
       -0.42236453 0.051656958 -0.1391369 0.21798004
000010 21 64 84 3f 40 e9 43 3f 3e cc 6c 3f e2 45 cd be
       1.0343057 0.76527786 0.9249915 -0.4009238
000020 40 7d 79 be 8d df 33 bf 79 df 30 be 0d 4b 2c 3e
       -0.24364185 -0.70262986 -0.17272748 0.16825505
000030 9d b7 43 bf 10 cf 2e 3f b8 6c d8 be de d3 d6 3e
       -0.76452047 0.682847 -0.42270446 0.41958517
000040 27 b1 5a 3f da 31 aa bd 31 bc f1 be 18 2f 5a 3e
       0.85426563 -0.0831029 -0.4721389 0.21307027
000050 de ed 85 3e 5e e5 33 be 73 36 0d 3f d3 b6 48 3e
       0.2615804 -0.17567965 0.5516121 0.19600992
000060 61 d9 c2 be 2e f2 be bc e1 7c a6 bf fb 6b 60 3f
       -0.38056472 -0.02330884 -1.300686 0.87664765
000070 14 2e 08 bf 88 f4 97 be 91 2f 8f bf 81 c7 37 bf
       -0.5319531 -0.2967875 -1.1186391 -0.71788794

nets.2.2.weight f4 [1, 32]
000000 26 da df 40 fe 91 f4 40 00 3c 87 c1 21 a7 a4 41
       6.9953794 7.6428213 -16.904297 20.581606
000010 30 ca 77 3f 08 da 08 c1 be a7 c5 c0 10 b4 80 c0
       0.9679289 -8.55323 -6.1767263 -4.0219803
000020 98 58 91 c0 a8 ef 24 c0 b7 95 0a c1 e7 3f 8c 40
       -4.5420647 -2.5771275 -8.661551 4.3828006
000030 4d 00 51 40 bf 4a 01 40 0d 15 10 c1 5e 49 6d c0
       3.2656434 2.0201871 -9.005139 -3.707603
000040 6f 42 1e 40 5a ff 46 c0 bd 6a aa c0 d0 15 e5 40
       2.4728048 -3.1093354 -5.3255296 7.1589127
000050 08 c0 a7 c0 a5 e1 55 c0 71 6b ee 3f 1c 51 15 41
       -5.2421913 -3.3418972 1.8626539 9.332302
000060 9e c9 3e c1 fd d1 b8 c0 f0 3d 87 c0 45 8e 12 41
       -11.924223 -5.7756333 -4.2263107 9.159734
000070 1d 9e 82 40 2d 96 4c 40 a0 d0 92 c0 30 83 94 c0
       4.081801 3.196666 -4.587967 -4.641014
